Model_Generated/01_All_Classes/model_cnn2d_4class_best.pth (torch, 54864 bytes, 4 tensors)

cnn.0.weight f4 [64, 1, 2, 2]
00000000: 2631 473e 2b67 fbbe ae36 603e 0885 41be
00000010: f097 9fbe fab0 f43e cf53 4a3e a97a cc3c
00000020: 289d 0dbf 4030 08bf 88a6 03be caa6 3f3e
00000030: 3ed6 f2be 7893 cc3e 650a 123f 9945 eebd
00000040: a5f1 e9be c564 343e 90b2 a13e 1fa0 8abe
00000050: c56a 0d3f f350 2fbe b24e 723e 56d2 a23e
00000060: 5b69 80be efe9 a73e 358a 2ebf 5843 3dbd
00000070: 5244 83be 600b ab3e 3431 31bf cd9f 35bd
00000080: 5ecf dd3e 19c8 01bd 414a a83e 971c ac3e
00000090: eab7 7c3e 0f2b eebc 2155 bbbe f808 48be
000000a0: f997 503e db19 413e 922e 053f 445f 753e
000000b0: 2b25 973e a828 8c3e 649a fd3e fc3d b63e
000000c0: 0c2e bcbd da77 a3bd 0d38 d33e 0fde 9dbe
000000d0: 0e7d d9be 0c94 ef3e b428 7fbc 4e38 b5be
000000e0: 7d5b 323e 05ea 123e 2033 f6be b78e b4be
000000f0: 1fec 2abe 921f 933d c636 d63e 6b48 11bf
00000100: 738a a13e 0a1a 143e cc5e ec3e b01c b93e
00000110: 0a4d b3be ce2d 06bf e538 3f3e 2e80 82be
00000120: d762 e7be f744 8fbd 9586 b13e 22ac a6be
00000130: ad72 c83e 43a2 2cbf 5607 b83d db0e dbbd
00000140: 302d 80bc 1c29 4bbe f490 bf3e 3bd8 8ebe
00000150: bf15 313e 8699 33be 635a 8cbe ebdc 913e
00000160: ef12 ddbe 6db7 cabd f236 413e 5c20 47be
00000170: 6619 05bf ec63 e73e 55ca c73d d9a4 19bf
00000180: ad33 eabe 7def 3f3e f196 25bc 023c c3bc
00000190: 0128 d5be e6ca 66be 774e 9d3e a032 c2be
000001a0: 320d cdbe 9903 ffbd a4de c3be 78ea 703e
000001b0: 3dee 973e 0d59 11bd cda2 d5be 3b8b 57be
000001c0: f4b6 c6bc 746d e8be 9d5b 9dbd 6e4c 863a
000001d0: 6f59 86be b5e4 513d 2bb8 d73d 22ab bdbe
000001e0: cb4f d73e 754f 0cbd 645c 2f3e 6355 f43e
000001f0: 9c5a e2bd 875c b4be 90f6 17be 5c92 e83d
00000200: c4a8 72be 6417 9f3e 8ba7 29bf 937f 1dbd
00000210: 02d3 7ebe d57e a53e 389d 2bbf bf85 45bd
00000220: 188d 9fbe 0756 d33e 738b a2be 7637 17be
00000230: 210c 1cbd 8c14 673c 9ca3 89be 02c1 bebd
00000240: 9c3f 733d b2aa a9be 474e cd3e c016 d2be
00000250: c15c a3be 7c35 963e 3420 033f f93c f6be
00000260: a8d8 01bf f109 f0be 9428 4b3c 863d 97be
00000270: df83 b23e 3bb5 1cbe 2f12 0a3d 5303 2a3e
00000280: f85e ae3e 9210 a4be 81a2 8c3e e721 97bd
00000290: b4f9 573e 8b0a 68be c8b7 c1be 7f86 c53e
000002a0: e7bb f2be 921f b3be d513 ebbd da38 0d3d
000002b0: 9dd6 383e 31d3 ad3d e040 843e f736 4f3e
000002c0: 5213 17bf d2aa 61be 30db 3e3e 11d0 cebd
000002d0: 31a7 d4be 82ae 353e 432a ba3d de89 efbd
000002e0: 009b 683e 0d2b cebc 37ce aabe 07ca 32be
000002f0: cb26 acbe dc25 fabe a353 c1be c83a 523e
00000300: 5334 9d3e a1a4 02bf e9bd af3d 82d8 c7bd
00000310: d18c 1dbb 7db4 9bbe b66c e53e 0913 eebe
00000320: 7784 033d d045 f6bd 47dd ccbe 664f ed3e
00000330: 1784 20be 0bdd 7f3e 3f23 2ebf 28ba 373b
00000340: bbed d2be 793e f3be 7dee e8bd d938 9abe
00000350: 7cb7 2a3d 5b0f 05bf ac1c 783e 673f b0be
00000360: 9257 00bf 32cf 5d3e 45b0 a1be b39b d93e
00000370: f229 e13d 83cb e03d df70 c8be aaea bcbe
00000380: afb5 ffbc fbd2 0fbf 8d0b be3b 5b13 23bd
00000390: e377 733e 398a 94be a2c5 04bf 9064 d73e
000003a0: c144 6c3e d8f4 3a3e fba4 1fbf 71de e6be
000003b0: 2705 cebe d172 16be b90f 863e 7a60 a4be
000003c0: a501 c73e 6f6e e5be e826 b7be c880 1bbb
000003d0: 94f6 6b3e c906 de3d 137b a93e df1b 883e
000003e0: 83d7 2a3f f4d9 1cbf c3a0 fd3b 894e b5bc
000003f0: 0bf3 c23d d2f6 b5be 06e6 b93e e10a bfbe
0.19452342 -0.49102148 0.21895859 -0.18898404 -0.31170607 0.47791272 0.19758533 0.024960833
-0.55317926 -0.53198624 -0.12856495 0.18715969 -0.4742908 0.3995626 0.5704711 -0.116343684
-0.45692173 0.17616566 0.31581545 -0.27075288 0.5524104 -0.17120723 0.23662832 0.318011
-0.2508038 0.32795665 -0.6817964 -0.046206802 -0.25638062 0.33407116 -0.69215703 -0.04434185
0.4332227 -0.03168497 0.3286915 0.33615562 0.24679533 -0.029073266 -0.36588386 -0.19534671
0.20370473 0.1885752 0.52024186 0.23962122 0.29520544 0.27374768 0.49531853 0.35594165
-0.0918847 -0.07981844 0.412537 -0.3083348 -0.42478222 0.46792638 -0.015573669 -0.3539452
0.17417713 0.14347084 -0.4808588 -0.35265133 -0.16691636 0.07183756 0.41838664 -0.56751126
0.3155094 0.14463058 0.46166074 0.361547 -0.35019714 -0.5241364 0.18674047 -0.25488418
-0.45192596 -0.06995576 0.3467299 -0.32553202 0.3914999 -0.6743509 0.08985774 -0.10696193
-0.015646547 -0.198399 0.37415278 -0.27899346 0.17293452 -0.17539033 -0.2741271 0.2848886
-0.43178508 -0.09898267 0.18868616 -0.19445938 -0.5199188 0.45193422 0.09755389 -0.6001716
-0.4574255 0.18743701 -0.010106788 -0.023832325 -0.41632083 -0.22538337 0.30723926 -0.3792925
-0.4004913 -0.12451858 -0.382558 0.23526943 0.2967395 -0.035485316 -0.4172577 -0.21049206
-0.02425716 -0.45396006 -0.076834895 0.0010246166 -0.26240107 0.051243503 0.10533174 -0.37044626
0.42053065 -0.034255464 0.17125088 0.47721395 -0.110524386 -0.35226843 -0.1484015 0.11356041
-0.23697191 0.31072533 -0.66271275 -0.038451742 -0.2488518 0.32323328 -0.6703677 -0.048223253
-0.31162333 0.4127657 -0.31747016 -0.1476725 -0.038097505 0.01410402 -0.26882637 -0.09314157
0.059386835 -0.33138043 0.40098783 -0.41032982 -0.31906703 0.2933768 0.51221013 -0.48093393
-0.50721216 -0.46882585 0.012399811 -0.29539126 0.34866235 -0.15303509 0.033708747 0.1660283
0.3405683 -0.32043892 0.2746773 -0.07379513 0.21091348 -0.22660272 -0.37835526 0.38579175
-0.47408983 -0.34985024 -0.11478392 0.034478046 0.18050618 0.08487547 0.25830746 0.20235811
-0.59013855 -0.22037819 0.18638301 -0.10098279 -0.41533807 0.1774235 0.09090092 -0.11696218
0.22715378 -0.025167013 -0.33360454 -0.1745988 -0.33623347 -0.4885701 -0.37759122 0.20530236
0.30703983 -0.51032454 0.08581144 -0.097580925 -0.0024040232 -0.3041114 0.44809502 -0.46498898
0.03210875 -0.120250344 -0.4001257 0.4634964 -0.15675388 0.24986665 -0.6802253 0.0028034542
-0.41197 -0.475086 -0.11373613 -0.30121496 0.04167889 -0.51976556 0.24229687 -0.34423372
-0.5013362 0.2166107 -0.31579795 0.42501602 0.109943286 0.10976317 -0.39148614 -0.36897784
-0.031214563 -0.56181306 0.005799717 -0.03981338 0.23776202 -0.29011706 -0.51864064 0.4206891
0.23073103 0.18257463 -0.62361115 -0.45091584 -0.40238306 -0.14692236 0.2618387 -0.32104856
0.38868442 -0.44810817 -0.3577187 -0.0023727883 0.23043281 0.10841138 0.3310171 0.26583764
0.66735095 -0.6127007 0.0077401116 -0.022132175 0.09519013 -0.3553987 0.36308306 -0.37312987

cnn.0.bias f4 [64]
00000000: c275 b43e c0a3 513e c0fe 923c 4064 77be
00000010: 2497 7abe 20e8 863e 109f 59bd 0c30 72be
00000020: 007f 673b 5c97 233e dc5d 943e 8e85 98be
00000030: 7c33 9abe 5892 d8be 2285 f0be 2ac2 8e3e
00000040: 9a06 c93e 00d4 deba 9615 f3be 26f3 bdbe
00000050: b487 93be aaf9 cbbe 6881 c9bd 14f9 9b3e
00000060: 2228 a73e 60b4 9fbd 6000 d2bc b8ed dc3d
00000070: 803b 1a3c 8e12 993e fc2c 263e a0ff 0d3d
00000080: 7c5a 6f3e e689 c1be 28ba 91bd beea e33e
00000090: 40a1 fcbe 16bc d83e 6a33 fe3e 80cf cabd
000000a0: 1a3f aebe 9c62 c83e f094 83be 3aca 823e
000000b0: 40ba 283c 4a37 f73e 2810 70be 045e 7cbe
000000c0: aee2 c33e 0412 97be 561b f93e 88bd e9be
000000d0: 1877 fdbe d4e9 ec3e a24c c7be 405c 51be
000000e0: 2a3e debe 181e e3bd a290 f23e 98dc ce3d
000000f0: 84cc 9cbe f8dc cb3e 4022 733c a8e3 f7bd
0.35246092 0.20472622 0.01794374 -0.24159336 -0.24471718 0.26348972 -0.05313021 -0.23651141
0.00353235 0.15975708 0.2897786 -0.29789394 -0.30117404 -0.4229915 -0.46976572 0.2788251
0.3926285 -0.0017000437 -0.47477406 -0.3709957 -0.2881447 -0.39838916 -0.098391354 0.3046347
0.32647806 -0.07798076 -0.025634944 0.10787529 0.0094136 0.2989697 0.16228098 0.03466761
0.23374361 -0.3780052 -0.071155846 0.44515032 -0.49341774 0.42330998 0.496486 -0.09902859
-0.34032518 0.39137733 -0.25699568 0.25544912 0.010298312 0.4828437 -0.23443663 -0.24645239
0.3825888 -0.29505932 0.48653668 -0.45652413 -0.49504924 0.46272147 -0.38925654 -0.20445347
-0.43406802 -0.11089724 0.4737597 0.10100669 -0.30624783 0.39817023 0.014839709 -0.12103969

fc.weight f4 [4, 3200]
00000000: 02d8 e6bc 3434 29bd 87b9 e1bc 4023 6cbc
00000010: 7fe2 c7bc 21f2 9fbc 3fd8 92bc 221f e9bc
00000020: 7b94 c2bc ec8d 05bd 96fb 71bc ef69 debb
00000030: cc2f 90bc 71e3 d03b 8da5 a2bc 50d7 5d3b
00000040: a066 97bb 5e39 0cbc d7df 913c cd8e 68bb
00000050: 104b 343c 7f29 acbc 5490 9cbc 9d4a f23c
00000060: 1598 553a 12f2 843c affa dabb 6ead f73b
00000070: 5f9a 8ebc 3cbf afbc cfad 15bc 6f07 55bd
00000080: 9394 303e b618 123d aa29 f53c 4f16 403c
00000090: fe73 e83c fc28 633e c020 51bd 36b9 16bd
000000a0: 56e6 023c 747c 103d 48a9 53be eca4 5aba
000000b0: 11ec c4bb 0059 1e3c a438 213d 4e98 c4bd
000000c0: d17c 883c c7b5 c63b 0037 bc38 b833 41bb
000000d0: cdec 7bbc 1096 503c 003d 2e3a c848 e43b
000000e0: 6a5b 013c a8c6 0abc 5cc7 4cbc 2428 f63b
000000f0: 8063 4dbc 9010 ebba c022 04ba 46e7 003c
00000100: fc70 7dbc e094 6dbc 3660 d9bb e8f4 d6bb
00000110: 20b3 8bbc feb7 733c 20b6 ab3a dc7c a93b
00000120: 040d ad3b 9804 073c 781a 453b e41b 57bb
00000130: 9e04 3a3c 178a 883c a2a7 2b3c 34e2 35bb
00000140: c017 cd3a 7f23 05bc a080 0b3c b448 e5bb
00000150: a9a1 26bc 10e0 c2bd 6670 a93d 8111 eabb
00000160: 3016 de3b 917a 9a3c 5107 1b3d daf4 01bd
00000170: 739b 2b3b c2fc 5a3b bd31 6a3b 5746 393d
00000180: 10f6 e23a 195e 2a3e 5050 f13a d542 433c
00000190: 4256 21bd 8fb5 1fbd b9a8 18bd f1a4 17bd
000001a0: c7c9 3bbd 3980 18bd ef43 57bc 2f1c f1bc
000001b0: 454f 27bd 1562 c8bc bede fbbc d2b8 d5bc
000001c0: 5b6a c2bc 5109 f8bc c4de 56bc ee90 b7bc
000001d0: cc9e bebb 1ccf 94bc d1aa 78bb 1f61 7e3c
000001e0: ce6f d8bc 8e4b 843b ccab 4fbc ab7d 243c
000001f0: 13bf 3f3c 4d10 99bc db85 5fbb fba7 8fbc
00000200: ec54 00bd bbb1 01bd 2d31 aabc b470 3e3d
00000210: 0bc3 aa3c d783 ae3b c1b4 3fbd 51d1 273d
00000220: 91d1 8f3c 2412 c93b c31c f13b 21d9 0c3c
00000230: 48a9 14bb bffe 193d ddf3 443c 870e 0fbe
00000240: a46f 29bc 8843 d7bc 7c19 f53c 005c 883c
00000250: 5997 9bbc fd8b 83bb eeac a8bb d0de 9c3a
00000260: 50da f63b 3ada 613c 8b41 813c a01e 373b
00000270: f89e ba3b b2f4 243c 803b 1f39 41b2 18bc
00000280: 142a 52bc 2687 55bc e246 d3bb e058 10ba
00000290: a4e0 53bb e2b3 313c d5cc 90bc b2fb 92bb
000002a0: 04a0 09bb f65f 65bc c0d5 beba 525f 723c
000002b0: bc66 71bb 7c3c 8e3b 30e2 b4ba 6c9b c43b
000002c0: 92c1 b2bb 3068 dcbb 14ba f93b f094 c3ba
000002d0: d0ad fa3b 140d 5bbc 3a3d 0e3c d868 293b
000002e0: f0e8 f23a 5ba9 44bd 1047 fd3b 5274 683c
000002f0: 4dce 853c 05b6 be3b 928a 31bd 71ef bf3b
00000300: dd45 863c 36fa 04bc f788 caba 3722 013d
00000310: 8437 033c c328 ca3d 60a8 f7ba 8c7c 17bc
00000320: 8a7f 70bc 66d2 25bd 0ddd 24bd 31d8 febc
00000330: 3fb0 96bc 4458 16bd dccd 06bc 9ca8 58bc
00000340: aa3d ddbc 8e46 0abd 6f10 a6bc 0d2e e5bc
00000350: a10c 1dbd 19af 87bc b758 03bd f710 a2bc
00000360: af4b 32bc 7168 643c 01df eebb b6d1 4d3b
00000370: 19ad 53bc a130 0f3a 2c2e 923a c5fd ea3c
00000380: c849 413a 6c5d c7bc de73 563c bf80 06ba
00000390: d776 413c 17ad 0f3c c17a a4bc b3ed 9bbd
000003a0: dac2 803e aa79 443e 6287 97bd 36a4 703d
000003b0: a39d bd3a 7f13 433a 2cb0 953d b97d 45bc
000003c0: 8bae 99bc 791f 58bd 914e 9d3d e5ad 9f3d
000003d0: 5ea3 dbbb 788b adbc 8c35 b6bc f3b8 7d3c
000003e0: 0838 26bd 0cde ecbc 5782 8b3c d0c4 83bc
000003f0: e683 fcbb 0034 f138 fe91 733c 945b c63b
-0.028179172 -0.04130955 -0.027554287 -0.014412701 -0.024399994 -0.019524636 -0.01792538 -0.028457228
-0.023752442 -0.03260605 -0.014769455 -0.0067875306 -0.017600916 0.0063747694 -0.019854331 0.003385026
-0.004620388 -0.008558599 0.01780693 -0.0035485507 0.011004224 -0.02101588 -0.01911179 0.029576594
0.0008147967 0.01622871 -0.006682716 0.007558516 -0.017407594 -0.021453492 -0.0091356775 -0.052009042
0.17244177 0.035668097 0.029927094 0.011724069 0.028375622 0.22183603 -0.051056623 -0.036797725
0.007989487 0.035274938 -0.20670044 -0.00083406153 -0.0060095866 0.009664774 0.039360657 -0.09599362
0.01666108 0.00606415 8.974783e-05 -0.002948029 -0.015376282 0.01273109 0.0006646663 0.006966684
0.00789533 -0.008470215 -0.012498703 0.0075121094 -0.01253593 -0.0017934013 -0.00050405785 0.00786764
-0.015468832 -0.014500827 -0.0066337837 -0.006559957 -0.017053187 0.01487541 0.0013100542 0.005172355
0.0052810926 0.008240841 0.003007559 -0.003282302 0.01135364 0.016667409 0.0104769785 -0.0027753236
0.0015647337 -0.008126139 0.008514553 -0.0069971923 -0.010170379 -0.09515393 0.082733914 -0.0071432
0.0067775473 0.018857272 0.037848774 -0.03172765 0.0026185184 0.0033414816 0.0035735213 0.045233097
0.0017315764 0.16637458 0.0018410776 0.0119177895 -0.039388902 -0.038991507 -0.03727028 -0.037022535
-0.045846727 -0.037231658 -0.013138755 -0.029432384 -0.04084708 -0.024460832 -0.03074586 -0.026089106
-0.023732355 -0.03027788 -0.013114635 -0.022407975 -0.00581727 -0.018165164 -0.0037943611 0.015526085
-0.0264205 0.004037327 -0.012675237 0.010039727 0.0117032705 -0.01868453 -0.0034106884 -0.017536154
-0.031330988 -0.031663638 -0.020775402 0.0464942 0.020844957 0.005325775 -0.04680324 0.040971104
0.017555984 0.0061361957 0.007358165 0.008596689 -0.0022683907 0.03759646 0.012021032 -0.13970385
-0.010341559 -0.026277319 0.029919378 0.016645432 -0.018993067 -0.0040144906 -0.005147568 0.0011968259
0.007533349 0.013784939 0.015778324 0.0027941838 0.00569522 0.0100681055 0.00015185587 -0.009319843
-0.012827415 -0.01303271 -0.006447659 -0.00055064075 -0.0032329941 0.01084611 -0.017675797 -0.004485571
-0.0020999918 -0.01399993 -0.0014559552 0.014793234 -0.0036834916 0.0043407064 -0.0013800319 0.005999973
-0.0054552043 -0.0067262873 0.007621059 -0.0014921706 0.0076501146 -0.013369817 0.00868159 0.0025849845
0.0018532556 -0.048013072 0.0077294186 0.014187889 0.016333723 0.0058200383 -0.04334504 0.005857401
0.016390735 -0.008116296 -0.0015452196 0.03152677 0.008008841 0.09871056 -0.0018894784 -0.009246003
-0.014678845 -0.040483855 -0.040249873 -0.031108947 -0.018394588 -0.03670527 -0.008227792 -0.013223793
-0.027006943 -0.033758692 -0.020271508 -0.02797606 -0.038342122 -0.016562985 -0.032067027 -0.01978348
-0.010882302 0.013940916 -0.0072897677 0.0031405515 -0.012919688 0.00054622634 0.0011152676 0.02868546
0.000737336 -0.02433654 0.013089148 -0.0005130879 0.011808119 0.008769295 -0.020078065 -0.07613697
0.2514866 0.19187036 -0.07398869 0.058750354 0.0014466535 0.0007441565 0.07308993 -0.0120539
-0.018759986 -0.05276439 0.07681001 0.077968396 -0.0067028245 -0.021184668 -0.02224233 0.01548599
-0.04058078 -0.028914474 0.017029924 -0.016085058 -0.007706153 0.00011501461 0.01486635 0.0060533974

fc.bias f4 [4]
00000000: 82bf 18be 506d 8e3d f9fc 01bd c00f d83d
-0.14916804 0.069544435 -0.031735394 0.10549879
